…
coring': {'_name': 'bleu', 'pad': 1, 'eos': 2, 'unk': 3}, 'bpe': None, 'tokenizer': None}
2022-12-12 19:05:23 | INFO | musicbert | [input] dictionary: 1237 types
2022-12-12 19:05:23 | INFO | musicbert | [label] dictionary: 497 types
2022-12-12 19:05:23 | INFO | fairseq.data.data_utils | loaded 8,870 examples from: processed/xai_data_bin_apex_reg_cls_augmented/0/input0/valid
dataset: 8870
labels: 8870
2022-12-12 19:05:24 | INFO | fairseq_cli.train | MusicBERTModel(
  (encoder): MusicBERTEncoder(
    (sentence_encoder): OctupleEncoder(
      (dropout_module): FairseqDropout()
      (embed_tokens): Embedding(1237, 512, padding_idx=1)
      (embed_positions): LearnedPositionalEmbedding(8194, 512, padding_idx=1)
      (emb_layer_norm): LayerNorm((512,), eps=1e-05, elementwise_affine=True)
      (layers): ModuleList(
        (0): TransformerSentenceEncoderLayer(
          (dropout_module): FairseqDropout()
          (activation_dropout_module): FairseqDropout()
          (self_attn): MultiheadAttention(
            (dropout_module): FairseqDropout()
            (k_proj): Linear(in_features=512, out_features=512, bias=True)
            (v_proj): Linear(in_features=512, out_features=512, bias=True)
            (q_proj): Linear(in_features=512, out_features=512, bias=True)
            (out_proj): Linear(in_features=512, out_features=512, bias=True)
          )
          (self_attn_layer_norm): LayerNorm((512,), eps=1e-05, elementwise_affine=True)
          (fc1): Linear(in_features=512, out_features=2048, bias=True)
          (fc2): Linear(in_features=2048, out_features=512, bias=True)
          (final_layer_norm): LayerNorm((512,), eps=1e-05, elementwise_affine=True)
        )
        (1): TransformerSentenceEncoderLayer(
          (dropout_module): FairseqDropout()
          (activation_dropout_module): FairseqDropout()
          (self_attn): MultiheadAttention(
            (dropout_module): FairseqDropout()
            (k_proj): Linear(in_features=512, out_features=512, bias=True)
            (v_proj): Linear(in_features=512, out_features=512, bias=True)
            (q_proj): Linear(in_features=512, out_features=512, bias=True)
            (out_proj): Linear(in_features=512, out_features=512, bias=True)
          )
          (self_attn_layer_norm): LayerNorm((512,), eps=1e-05, elementwise_affine=True)
          (fc1): Linear(in_features=512, out_features=2048, bias=True)
          (fc2): Linear(in_features=2048, out_features=512, bias=True)
          (final_layer_norm): LayerNorm((512,), eps=1e-05, elementwise_affine=True)
        )
        (2): TransformerSentenceEncoderLayer(
          (dropout_module): FairseqDropout()
          (activation_dropout_module): FairseqDropout()
          (self_attn): MultiheadAttention(
            (dropout_module): FairseqDropout()
            (k_proj): Linear(in_features=512, out_features=512, bias=True)
            (v_proj): Linear(in_features=512, out_features=512, bias=True)
            (q_proj): Linear(in_features=512, out_features=512, bias=True)
            (out_proj): Linear(in_features=512, out_features=512, bias=True)
          )
          (self_attn_layer_norm): LayerNorm((512,), eps=1e-05, elementwise_affine=True)
          (fc1): Linear(in_features=512, out_features=2048, bias=True)
          (fc2): Linear(in_features=2048, out_features=512, bias=True)
          (final_layer_norm): LayerNorm((512,), eps=1e-05, elementwise_affine=True)
        )
        (3): TransformerSentenceEncoderLayer(
          (dropout_module): FairseqDropout()
          (activation_dropout_module): FairseqDropout()
          (self_attn): MultiheadAttention(
            (dropout_module): FairseqDropout()
            (k_proj): Linear(in_features=512, out_features=512, bias=True)
            (v_proj): Linear(in_features=512, out_features=512, bias=True)
            (q_proj): Linear(in_features=512, out_features=512, bias=True)
            (out_proj): Linear(in_features=512, out_features=512, bias=True)
          )
          (self_attn_layer_norm): LayerNorm((512,), eps=1e-05, elementwise_affine=True)
          (fc1): Linear(in_features=512, out_features=2048, bias=True)
          (fc2): Linear(in_features=2048, out_features=512, bias=True)
          (final_layer_norm): LayerNorm((512,), eps=1e-05, elementwise_affine=True)
        )
      )
      (downsampling): Sequential(
        (0): Linear(in_features=4096, out_features=512, bias=True)
      )
      (upsampling): Sequential(
        (0): Linear(in_features=512, out_features=4096, bias=True)
      )
    )
    (lm_head): RobertaLMHead(
      (dense): Linear(in_features=512, out_features=512, bias=True)
      (layer_norm): LayerNorm((512,), eps=1e-05, elementwise_affine=True)
    )
  )
  (classification_heads): ModuleDict(
    (xai_head): RobertaClassificationHead(
      (dense): Linear(in_features=512, out_features=512, bias=True)
      (dropout): Dropout(p=0.0, inplace=False)
      (out_proj): Linear(in_features=512, out_features=13, bias=True)
    )
  )
  (regression_heads): ModuleDict()
)
2022-12-12 19:05:24 | INFO | fairseq_cli.train | task: MusicBERTSentencePredictionMultilabelTaskXAI
2022-12-12 19:05:24 | INFO | fairseq_cli.train | model: MusicBERTModel
2022-12-12 19:05:24 | INFO | fairseq_cli.train | criterion: MusicBERTM2PCriterionForXAI
2022-12-12 19:05:24 | INFO | fairseq_cli.train | num. model params: 22,805,730 (num. trained: 22,805,730)
…
